cpu_model_demo.pth (torch, 3427 bytes, 4 tensors)

fc1.weight f4 [16, 7]
000000 f4 19 52 3e 4e 9d 25 be e0 7c 9d be 2a f0 95 be
       0.20517713 -0.16173288 -0.30759335 -0.29284793
000010 dc c0 8e 3c db f7 54 bd f6 c9 77 bc 06 ef c7 bd
       0.017425947 -0.051994186 -0.015123835 -0.09762387
000020 f9 e9 1f be a3 10 65 3e 2a 59 5f bd 6f c9 2f 3e
       -0.15616597 0.22369628 -0.054528393 0.17166685
000030 ab 7b 58 3d a8 19 80 3e df 7c a6 be 4f 0a 6c be
       0.052852314 0.25019574 -0.32517144 -0.23050807
000040 b0 30 a7 3e 9d 3c 87 be 15 b1 84 3d b0 32 94 3e
       0.32654333 -0.26413432 0.06479088 0.28944921
000050 67 6a 9d be 49 64 35 be f4 c3 70 be 82 85 e0 bd
       -0.3074524 -0.17714037 -0.2351225 -0.109629646
000060 b3 cc a4 be 36 c5 72 3e 1f 9c 9f bd 44 63 b2 3e
       -0.32187423 0.23708043 -0.077934496 0.3484136
000070 97 3e 22 3e bc 3f af be 16 ec 68 be 4f ed 95 3e
       0.15844189 -0.34228313 -0.2274631 0.29282615
000080 91 6d 45 3d 25 62 97 be 5e 1f 7d 3e e0 77 02 3e
       0.048200194 -0.29567066 0.24718997 0.12741041
000090 ff 25 00 be 0c 99 b0 be 50 c0 35 be 25 94 83 3e
       -0.12514494 -0.34491765 -0.17749143 0.25698963
0000a0 87 85 33 3e 35 bf 3a 3e 66 f8 84 be d0 db df bd
       0.17531405 0.18237002 -0.25970763 -0.10930598
0000b0 b3 90 3e bd 39 02 5e 3e 97 fe b6 bd 6f 3a ba be
       -0.046524715 0.21680535 -0.08935278 -0.36372706
0000c0 26 57 42 be 6c 03 05 be f4 c9 69 be c2 65 7f 3e
       -0.18978557 -0.12989587 -0.22830945 0.24941161
0000d0 84 7e 78 3e db e7 96 3c 98 1f 78 be 2b e0 90 3e
       0.24267012 0.018421104 -0.24230802 0.28296027
0000e0 16 a8 94 3e 2e 42 83 3e 6c 20 6c 3e 1f c1 e5 3c
       0.2903449 0.2563643 0.23059243 0.028046189
0000f0 78 8b a7 3e 50 b3 62 be 7f 2d 0e 3e 27 87 b2 3e
       0.32723594 -0.22138715 0.13884543 0.34868738
000100 19 91 14 3d 5d 7f 6e 3e c1 ed a8 be 89 df 57 3e
       0.03627119 0.23290773 -0.32993892 0.21081366
000110 52 80 86 be eb e7 a3 3e ae a6 b1 be ac 61 18 be
       -0.26269776 0.32012877 -0.3469748 -0.14881009
000120 aa 0f 7c 3e 64 31 ae be 6b 6e 07 3e b3 79 a7 3e
       0.2461535 -0.34022057 0.13225715 0.32710037
000130 56 8d 7e 3a 0f 3d 1c 3d 48 3d 9c 3d 30 3c dc 3c
       0.0009710392 0.038144168 0.07628876 0.026884168
000140 7f a9 63 be bf bb 07 3e 66 2f a2 be af db b0 bc
       -0.22232626 0.13255213 -0.31676787 -0.021589128
000150 6f 49 de 3d cd af 40 be ae 04 28 be 98 d8 23 3e
       0.1085385 -0.18817063 -0.16408035 0.16000593
000160 22 1e 3b be f7 8e aa 3e 38 7e a0 be 49 fe f7 3d
       -0.18273214 0.333122 -0.31346297 0.12109048
000170 67 89 63 be 74 bc bc 3d a2 27 bf be 53 b9 b2 be
       -0.22220384 0.09215632 -0.37334925 -0.34907016
000180 f8 da 4e 3d d5 06 35 be 5b 02 88 be 4b ef b2 be
       0.050501794 -0.17678387 -0.26564297 -0.3494819
000190 95 38 4b 3c 57 b6 5c 3e e6 38 02 3c ab e1 1b 3e
       0.012403627 0.21553932 0.007948136 0.15222804
0001a0 8f 13 67 bd c1 06 87 be f2 79 97 be 5c 55 a6 bd
       -0.056415137 -0.2637234 -0.29585224 -0.0812175
0001b0 8f 07 55 3e ca d8 46 bd 0a d7 73 3e 3f 76 0f be
       0.20803665 -0.04854659 0.238125 -0.14009951

fc1.bias f4 [16]
000000 b7 c1 a3 be 3c 7b 93 be ab f8 b3 be d8 30 b3 be
       -0.3198373 -0.28804958 -0.35150656 -0.34998202
000010 ef 6b 94 be c2 af cb bd a8 5c 5d be 23 36 76 be
       -0.28988597 -0.099456325 -0.21617377 -0.24044089
000020 55 64 0b 3e 2c 77 32 be 05 e8 0a be 08 5e 3c be
       0.13612492 -0.17428273 -0.13565071 -0.18395245
000030 2a 39 84 3d e5 ab 6b 3e 4b f1 2e be 52 20 80 be
       0.06456216 0.23014791 -0.17084233 -0.25024658

fc2.weight f4 [4, 16]
000000 af cd 22 be b3 25 be bd 09 84 9d bd 81 52 36 bd
       -0.15898775 -0.09284534 -0.07691199 -0.044512276
000010 1b 1e 01 3e 98 76 9c 3d a8 df f7 bd cc 42 68 be
       0.1260914 0.076398075 -0.12103206 -0.22681731
000020 9a b6 04 3e b3 ba 78 3e 40 83 13 3e 88 33 1b 3e
       0.12960282 0.2428997 0.14405537 0.15156376
000030 ee 06 47 3e 4f 8b ab 3d 54 1e 45 3c 8f bd 22 bd
       0.19436237 0.083761804 0.012031157 -0.03973156
000040 22 c9 87 bd f0 da 30 be 34 48 66 3e 2e 80 9e bd
       -0.0663016 -0.17271018 0.22488481 -0.07739292
000050 cb d7 b2 3c 31 5e 0e be 91 2b fe bc cd 62 d9 3d
       0.021831414 -0.13903119 -0.031026633 0.10614548
000060 5b a8 ae bd 7c 99 73 3c 15 fe fa 3c 3d 2c 2e 3e
       -0.08528205 0.0148681365 0.030638734 0.17009063
000070 54 0d d2 bd 41 ba 32 be 21 77 01 bd ee 12 15 bd
       -0.102564484 -0.17453863 -0.03160775 -0.036395006
000080 88 e9 64 3e 84 91 d3 bd f0 8b 43 be 8c 77 6e 3e
       0.2235471 -0.10330489 -0.1909635 0.23287791
000090 c7 60 f8 bd cc 28 54 be 75 72 9a 3d 14 f9 08 be
       -0.12127834 -0.20718688 0.07541362 -0.13376266
0000a0 68 06 75 bd 11 20 7e be ec 3a 1f be 31 21 ca 3d
       -0.059820563 -0.2481692 -0.1554982 0.09869612
0000b0 5d 83 a9 bb 87 11 54 3e 6c ee 39 3e 4f 35 a5 3c
       -0.0051731304 0.20709811 0.18157357 0.020167021
0000c0 22 c4 5e be e9 05 a6 bd 53 72 43 3e 6b 8e a6 3d
       -0.21754506 -0.08106596 0.1908658 0.08132633
0000d0 7a 64 23 bc 66 17 78 3d 65 b4 ea 3d 82 75 49 be
       -0.009972686 0.06056919 0.11460189 -0.19673732
0000e0 71 59 7e be a1 52 90 3d 40 0a f8 3c d5 d2 c6 3d
       -0.24838807 0.0704701 0.030278325 0.09708182
0000f0 2c 7b 29 3e d3 e4 63 3e 7c 21 2a 3e 60 aa f2 3d
       0.16550893 0.22255258 0.16614336 0.11848903

fc2.bias f4 [4]
000000 c9 78 48 3e 90 2e d1 3c 34 82 5d be a4 72 96 3d
       0.19577326 0.025534898 -0.216317 0.07346085
